Saved Models/regression_nn_model_v2.pth (torch, 21775 bytes, 5 tensors)

fc1.weight f4 [64, 9]
000000 d8 db 1e bf 77 42 31 3e da 90 16 bf 91 80 81 be
       -0.62054205 0.1731051 -0.58814776 -0.252934
000010 a3 8a 26 be d3 44 cf bf 55 7e 9c 3e 6c 70 25 3f
       -0.16263823 -1.6192878 0.30565134 0.6462467
000020 4d e8 e9 bd 6d e1 07 c0 3c 10 e4 be 2d 93 33 be
       -0.11421261 -2.123134 -0.44543636 -0.17536612
000030 f9 67 8c bf 47 7b 9f 3e a6 ce 0b 3e ae f1 6a bf
       -1.096923 0.3114874 0.13653049 -0.91775024
000040 8d 56 ec 3e 1a da 84 3d 12 33 50 3e d4 83 b5 3e
       0.46159783 0.06486912 0.20331982 0.3545214
000050 b6 99 1a bf c5 1e 2a bf bc 49 bf 3e eb a3 0a c0
       -0.60390794 -0.664532 0.37360942 -2.1662548
000060 e8 9d 6c 3f 86 71 98 3e 39 bb 20 3e 78 c6 f1 be
       0.92428446 0.29774112 0.1569642 -0.47221732
000070 dc 73 1d bd 5a 82 03 3f a5 a5 1d bf 9b 13 dd 3d
       -0.03844057 0.51370776 -0.6158088 0.10794755
000080 dc 97 6a be 57 07 c7 3f b9 32 35 3e ed 5e 40 bd
       -0.22909492 1.5549115 0.1769513 -0.04696553
000090 43 09 4f bc 7a 45 f7 3e 83 23 c1 be 08 56 b7 3e
       -0.0126364855 0.48295194 -0.37722406 0.35807824
0000a0 3d 61 93 3e fe 24 9d 3e ae dd 40 3f ce f7 81 bf
       0.28785124 0.30692285 0.75338256 -1.0153749
0000b0 64 cd 41 3d db ca b0 be a0 4c 2b 3e da 66 0b c0
       0.047315016 -0.34529766 0.16728449 -2.1781526
0000c0 e8 b7 ee 3e a6 dd 26 be d3 cf 2b 3d 56 2a e1 be
       0.46624684 -0.1629549 0.041946243 -0.43977612
0000d0 5b 24 ad 3e 28 27 05 bf 43 cb 34 bf dc bc 2e bf
       0.338168 -0.5201287 -0.7062265 -0.68256927
0000e0 6c 63 56 be 90 78 07 be a2 ee 4b bf a2 ef 31 3f
       -0.20936364 -0.13229585 -0.79661 0.69506276
0000f0 5d 91 f4 be 2e 9d f3 bd e6 fb c2 3e 60 71 3a 3f
       -0.47767153 -0.11895214 0.38082808 0.72829247
000100 c5 a0 5f 3f 08 e3 0a 3e f3 d2 01 be 73 fc 10 bf
       0.8735469 0.13563168 -0.12678127 -0.56635207
000110 b2 3d c7 3d e4 bf bc 3f 1b e5 87 3e 10 71 0b bf
       0.09728564 1.474606 0.2654198 -0.54469395
000120 d7 23 66 3f 1e 12 10 3e 3a 9b 23 bf 55 99 9c 3e
       0.8989844 0.14069411 -0.6390873 0.30585733
000130 1f 02 98 be 12 65 12 bf 47 e1 c3 be 50 fb 59 bf
       -0.29689118 -0.5718547 -0.3825781 -0.851491
000140 91 54 81 3f 27 b0 da 3e 5d 92 8d 3e ac c8 63 bd
       1.0103933 0.4271252 0.2765073 -0.055611297
000150 ca 43 60 3f 80 7b 03 bf e9 6d 2e bf 7f 55 38 3f
       0.8760344 -0.5136032 -0.6813646 0.72005457
000160 dc ff 5b 3e ef a9 ab be b4 9e 90 3e 06 71 78 3f
       0.21484321 -0.33528087 0.2824608 0.9704746
000170 71 18 57 bf 7a c0 1c bf 99 85 99 be d7 c7 25 3d
       -0.8402167 -0.61231196 -0.2998474 0.040473785
000180 4e ca bd 3e 03 71 02 bf a6 e2 3d 3f 4f 3a 0a bf
       0.3706841 -0.5095369 0.74173963 -0.5399522
000190 53 c1 9d 3e 58 4b 57 be 3b 4a 59 3e 66 11 a6 3d
       0.30811557 -0.21024835 0.21219723 0.08108787
0001a0 6d 26 68 3e 05 17 8f be 75 6d 8a bd 5c 6a 81 be
       0.22670908 -0.2794725 -0.067591585 -0.25276458
0001b0 fa dc c0 3e fd 3d d1 bd 54 4c 6e bf 24 6f bb 3d
       0.37668592 -0.102169015 -0.9308522 0.09152058
0001c0 00 9a 32 bf 10 9c 87 3f 0b 27 56 bf 58 e7 ab 3d
       -0.69766235 1.0594501 -0.83653325 0.08393735
0001d0 07 1b 2d c0 66 7c 84 be 8c 7b 28 be 70 e6 96 bf
       -2.7047746 -0.25876158 -0.1645338 -1.1789074
0001e0 34 e5 79 3e ae 99 05 3f 42 fe ed 3e 6b 3e dd 3e
       0.2440384 0.5218762 0.46483046 0.43211684
0001f0 96 19 85 3e 7f 48 06 3f e8 6b 2d 40 af 0e 22 3e
       0.25996083 0.5245437 2.709711 0.15825914
000200 96 30 1e 3e 53 32 6d 3e 8f 5d eb 3d 60 21 e4 bd
       0.15448222 0.23163728 0.11492454 -0.11139178
000210 6f 8e 0b 3f 5e 13 59 3d a7 c1 32 3e bf 5b 44 bf
       0.5451421 0.052996986 0.17456685 -0.76702493
000220 ec 91 11 3f f2 02 7a bf 80 37 a3 3e cd 91 65 3d
       0.56863284 -0.97660744 0.3187828 0.05604725
000230 5a c2 81 3f 2a 20 57 bf 4e 5b 44 bf 30 ac 5b 3e
       1.0137436 -0.84033453 -0.7670182 0.21452403
000240 0d da ad 3f ea 8d 0f be f4 f0 23 3e d4 c1 48 3f
       1.3582169 -0.1401898 0.16009885 0.7842076
000250 66 52 11 3f ea cc c2 be e3 2a b6 be f1 5c 4f 3e
       0.56766355 -0.38046962 -0.35579595 0.20250298
000260 a1 f2 6e 3e 18 c2 1a 40 20 86 e8 bd fd 1a 05 be
       0.23334743 2.4180965 -0.11353707 -0.12998576
000270 3d 6b 20 3f 3e 2c 8e 3e 54 f1 04 3f 1c 5f 33 3f
       0.6266363 0.2776813 0.5193074 0.70067
000280 7e 3c ea 3e 0d ac f8 3d df 79 7a 3f 6b f5 60 bd
       0.45749277 0.12142191 0.9784221 -0.05492155
000290 eb c7 38 be 3e 92 65 be bd 20 11 3e 9a 41 5a 3e
       -0.18045013 -0.22419068 0.14172645 0.21314088
0002a0 37 54 85 3f 64 9d 3f 3e a0 5e 8f 3f 4b 79 af 3e
       1.0416325 0.18712384 1.1200752 0.34272227
0002b0 4b 21 cf 3e e3 32 7b bf 25 1a 61 3f 85 59 a7 3e
       0.40455088 -0.9812452 0.8793052 0.32685485
0002c0 8e 07 b9 3f 46 10 0c 3f e2 60 9e be 24 79 d5 3d
       1.445543 0.5471233 -0.3093329 0.10423496
0002d0 ad a3 2c bf 2a fd 9d 3e 4e e9 c3 3e aa b8 05 bf
       -0.6743725 0.3085721 0.38263935 -0.522349
0002e0 5f 52 b6 3e 1a 23 c3 bf cb 73 14 bf 11 13 d5 3e
       0.3560972 -1.5245087 -0.57989186 0.4161611
0002f0 3a 44 d3 bd 7c 6f 27 be c3 00 d5 3e 91 b8 82 bf
       -0.103157476 -0.16351122 0.41602144 -1.0212575
000300 0e ad 25 3f fb 6a a8 3e 95 0a f1 3f 9b 57 c0 3e
       0.64717185 0.3289412 1.8831354 0.37566838
000310 81 d8 3e bf 9b aa 88 3e 4a 51 c9 3f d8 d0 09 3f
       -0.7454911 0.26692662 1.5727932 0.53834295
000320 ae 08 a2 be c3 18 2f 3f 3e f8 0d 3f 4d 02 9c be
       -0.31647247 0.6839716 0.5545691 -0.30470505
000330 95 2e a0 3e b3 dc 17 3c 7c 24 35 3e 21 a1 63 3f
       0.3128554 0.009268927 0.17689699 0.8891774
000340 dc 8a e0 be 98 5e 58 bf ed cb 3a 3f c3 3d 5d bc
       -0.4385594 -0.8451934 0.72967416 -0.013503495
000350 d9 0e 99 3e 7f d0 66 3f 7a a0 a3 3e 86 bd 20 bf
       0.2989414 0.9016189 0.3195837 -0.6278919
000360 8b 93 09 3f da ff f6 be 6c 17 4f 3e 10 bc 52 bd
       0.5374076 -0.48242074 0.20223778 -0.05144888
000370 0f 30 bb 3e 44 fe fa be 0a ae 2d 3f 9a c8 3a 3f
       0.36560103 -0.49022114 0.6784369 0.72962344
000380 0e f3 20 3e ed 3f 2d 3e f9 a7 61 3f be 9c 25 3f
       0.15717718 0.16918917 0.8814693 0.64692295
000390 0b bb c4 be 6d 11 03 be c4 ce 76 bf 7f 01 31 bf
       -0.38423952 -0.12799616 -0.9640925 -0.6914291
0003a0 1d 40 02 bf 35 6c 1d bf 60 db 5b 3f e0 e4 8c 3e
       -0.5087908 -0.61493236 0.85881615 0.27518368
0003b0 9e de 20 3c c9 0c d2 3e e9 4a 23 3e 92 09 b2 3c
       0.009818701 0.4102538 0.15946545 0.02173308
0003c0 49 87 89 3e c6 4e be bd 72 08 67 bf a2 35 55 3f
       0.26861027 -0.092923686 -0.9024726 0.8328496
0003d0 00 cf 13 bf 06 d5 7f 3f 8d 4b 8c bf d4 19 17 be
       -0.5773773 0.9993442 -1.0960556 -0.14755946
0003e0 12 4d 0d 3f 30 c2 16 3f d8 61 3a be 47 7d 6a 3e
       0.55195725 0.58890057 -0.18201387 0.22899352
0003f0 7c 3c 22 bd db b0 24 bf 8a e3 51 bf 66 45 03 3f
       -0.039608464 -0.6433236 -0.8198782 0.5127777

fc1.bias f4 [64]
000000 f0 d5 8d bf 72 1e 05 bf f3 70 ed 3e f8 b4 0e ba
       -1.1080914 -0.5199958 0.46375236 -0.00054438366
000010 e3 2b 96 bf b3 b7 ae be 86 a1 49 3f f2 29 d1 3f
       -1.1732143 -0.34124526 0.7876209 1.6340926
000020 79 9b 1c bf cd 5e 12 bd 51 92 84 bf dd 80 93 bf
       -0.6117473 -0.03573494 -1.0357152 -1.1523701
000030 c2 51 0d 3e 42 56 9b bf 4e 6a 1c 3f 6c 18 95 bf
       0.1380072 -1.2135699 0.6109971 -1.1648078
000040 fc 0e 70 bf e8 7d b2 bd b5 14 f0 be ad 7c a7 bf
       -0.93772864 -0.08715421 -0.46890798 -1.3084923
000050 70 41 46 3f 59 c0 8a bf 38 5d 31 bf b3 11 28 bf
       0.774436 -1.083995 -0.69282866 -0.65652007
000060 29 00 11 bf 5b 10 88 3f 04 6a 9d bd 68 ba bd bf
       -0.5664087 1.0629991 -0.076862365 -1.4822512
000070 ff 21 40 bf 85 65 88 bf d4 bd f8 be 97 72 c2 bf
       -0.75051874 -1.0655981 -0.48582327 -1.519122
000080 f9 91 ec be 70 8e 14 3f b5 c4 dc bf 75 22 60 bf
       -0.46205118 0.5802984 -1.724753 -0.8755258
000090 21 57 25 3e 86 a7 4d 3e 1b f3 df 3d c3 d8 c5 3d
       0.16146518 0.20083436 0.109350406 0.09660485
0000a0 f5 21 8d bf 88 cf c6 bf 26 ae d2 bf 5a cb a8 bf
       -1.1025988 -1.5532084 -1.6459396 -1.3187058
0000b0 76 f8 58 bf 4c b6 3e bf 96 92 a1 bf fc 4a 98 bf
       -0.8475412 -0.7449691 -1.262286 -1.1897883
0000c0 26 0e e0 bd 2b c0 7c be b3 ea bc bf 9b a4 b0 bf
       -0.109401986 -0.24682681 -1.4759125 -1.3800234
0000d0 9f 23 d0 bf e2 13 c6 3e b0 09 20 be eb 73 8d be
       -1.6260871 0.38687044 -0.15628695 -0.276275
0000e0 f2 8a 98 be b5 5e 26 3e fe f9 a8 bf bb 0e 42 bf
       -0.29793507 0.16247065 -1.3201292 -0.75803727
0000f0 f4 31 63 bf 3d c8 93 3f 0e be 88 3e 2c ed 2a 3e
       -0.887481 1.1545483 0.267075 0.16692036

fc2.weight f4 [64, 64]
000000 93 82 24 3e 7f 45 9e be 22 10 c5 3e 00 2e 1a be
       0.16065435 -0.30912396 0.3848887 -0.1505661
000010 a1 51 e1 3e 3a 76 e9 3d 7f 9f 4b 3e 40 9d bc be
       0.4400759 0.11399503 0.19885062 -0.36838722
000020 4f 08 97 3e 9c 4b ae 3e f3 5b 9e 3e 56 d5 e6 3e
       0.29498526 0.3404206 0.30929527 0.45084637
000030 53 d7 ec 3e ce d2 b5 bd 29 4a 3a 3f fd 67 29 be
       0.4625803 -0.088780984 0.7276941 -0.16543575
000040 bb b0 64 be 31 21 29 3f 8b c3 b9 3d b6 39 c2 3d
       -0.22333042 0.6606627 0.090705 0.09483664
000050 41 f3 cc be 72 f1 89 3e 4a 59 8a bd fa 83 02 be
       -0.40029338 0.2694202 -0.06755312 -0.12745658
000060 a7 8d 9c 3d 6e 7c 76 3e 39 67 64 3e 2a 23 76 be
       0.076442055 0.24070904 0.22305001 -0.24036852
000070 21 cd 99 3e b4 c2 e3 3e b5 d2 cf 3d 2f 54 07 3f
       0.30039313 0.44484484 0.10147611 0.5286283
000080 ed 9c 6c 3e ce 5c 25 3e 3a de f3 3d 53 65 81 3d
       0.23106737 0.16148683 0.11907621 0.06318154
000090 6a e6 f2 3e 8b 8c 4f 3e f0 fe 48 3f 71 b8 24 be
       0.47441417 0.20268457 0.78514004 -0.16085984
0000a0 c9 0c c8 bd d7 b3 3b 3d 12 47 21 be 22 c1 00 bd
       -0.097680636 0.045825806 -0.15749767 -0.031434186
0000b0 b0 92 19 be a6 d7 03 be 26 e5 41 bf 03 ca 24 bf
       -0.14997363 -0.12875232 -0.7574028 -0.64370745
0000c0 8f d7 3e 3e 08 61 d0 3e 57 5b ea 3d 28 3f 82 be
       0.18636917 0.4069903 0.11443203 -0.2543881
0000d0 e9 36 a6 be 67 07 ab 3e 69 99 8e 3e 49 df 9e 3d
       -0.32463768 0.33404085 0.27851418 0.07757432
0000e0 28 af 27 bf 02 4d c3 3e 1d 28 2d 3e 15 b4 f0 3d
       -0.6550164 0.3814469 0.16909833 0.11753098
0000f0 1e 95 d3 3e 5c 09 8a bc d1 b2 be 3d e9 5d c4 3d
       0.41324705 -0.016850166 0.0931145 0.095882244
000100 e1 d9 f0 bd ec c3 b5 bd 73 fb 84 bd 9b e1 36 be
       -0.11760307 -0.0887526 -0.06493273 -0.17859499
000110 b6 d6 c4 3a 43 2d f2 bb b2 59 78 bd e4 54 b4 bc
       0.0015017602 -0.0073906495 -0.060632415 -0.022013135
000120 22 98 0d be 38 57 4b bd 91 44 2c be 5f ed 98 bc
       -0.13827565 -0.049643725 -0.16823031 -0.018667875
000130 de 51 90 3d f7 b8 42 be c8 22 ce bd e8 fd e1 bd
       0.07046865 -0.19015871 -0.10065228 -0.11034757
000140 81 20 62 bb da f1 3b 3d 44 39 4f 3d 0e 67 ca ba
       -0.0034504237 0.045884944 0.050591722 -0.001544209
000150 37 3e 5d bd cd 52 a1 bd 76 42 19 be 23 38 5a 3d
       -0.05401441 -0.07877121 -0.14966759 0.053276192
000160 e1 5d 99 3d be 6d e7 3c 14 b8 ef bd f1 b9 14 be
       0.07488609 0.028250571 -0.11705032 -0.14524056
000170 3b a0 92 3c 62 65 fb bc 13 44 0b be 35 2e f0 bd
       0.01789867 -0.030687992 -0.13600187 -0.11727563
000180 29 0a 0a 3d b9 c8 ce bd 8a 2b e8 bd 6c 44 fb bc
       0.033701096 -0.100968786 -0.113364294 -0.030672275
000190 e9 0f ce bd 9a 78 1f be 50 cd 3f be 9a 81 09 3b
       -0.10061628 -0.1557335 -0.18730664 0.002098179
0001a0 7b b0 18 be 11 6f a3 bd 15 a9 cd bd c6 12 1f 3d
       -0.14911072 -0.079801686 -0.100420155 0.038836263
0001b0 56 99 fb bd dc e3 c8 bc 13 52 e8 bd 1e b7 20 3d
       -0.12285106 -0.024522714 -0.113437794 0.039237134
0001c0 c6 fe d0 bd f4 79 8e bc a6 ca 15 be 20 eb 24 be
       -0.10204844 -0.017392136 -0.14628085 -0.16105318
0001d0 5b 58 d2 bd 23 8f 25 bd 5a 65 64 39 bd af 49 be
       -0.10270759 -0.04041971 0.00021781531 -0.19695945
0001e0 ac f3 96 bd 25 2c f7 3c d5 60 c4 bd bb 0e 29 be
       -0.073706955 0.030172417 -0.09588782 -0.16509525
0001f0 c8 b1 38 be b0 d2 10 be 8f 47 e4 bd e0 ef be bc
       -0.18036568 -0.14142871 -0.11146461 -0.02330774
000200 bf 4a b9 be e1 05 f9 bd 2b 15 3b be e4 c3 78 bf
       -0.3618984 -0.121593244 -0.18269794 -0.97173905
000210 2a 6f 03 3e 4e 98 a9 3e ba ca 16 3e bf 15 a9 3e
       0.12835374 0.33124012 0.14725772 0.33024403
000220 02 65 e4 3e 0b f5 65 3e a7 d2 23 be 31 db 12 3c
       0.44608313 0.22456758 -0.15998326 0.008963392
000230 35 a3 12 3e 70 61 31 3e 38 7a c2 be 74 50 10 3f
       0.14320071 0.17322326 -0.3798387 0.5637276
000240 48 f8 cc 3e f9 ae ab be 1b 60 08 3f 94 ee 13 3f
       0.40033174 -0.3353193 0.53271645 0.57785916
000250 5e 2d 01 3f 91 60 1a 3f bb 50 9b 3e 6c d0 b0 3e
       0.5045985 0.603036 0.3033503 0.34534013
000260 52 fb 2f bc ed 53 e3 be 23 d4 07 3e a0 98 af be
       -0.010741072 -0.44399968 0.13264517 -0.3429613
000270 7d ad c7 bc 4d 75 fb be c3 a3 24 3e 2c 79 2a bf
       -0.024374718 -0.4911293 0.16078095 -0.66591144
000280 33 2a d8 bd 2a 19 c5 be fa 59 c7 3e e6 59 1e bf
       -0.10554924 -0.3849576 0.38935834 -0.61855924
000290 83 03 17 3e bc 72 d9 bd 63 51 a4 be 0c b4 0f 3f
       0.14747433 -0.10617587 -0.32093343 0.56134105
0002a0 8a db 0f 3f 6e 86 e7 3e 85 4b 0b 3f 44 d1 30 3f
       0.56194365 0.4521975 0.5441211 0.69069314
0002b0 35 a9 07 3f 8f c4 df 3e 3c 55 12 bf d5 5c 94 3f
       0.52992564 0.4370465 -0.5716131 1.159083
0002c0 b2 fc ad 3e 0e 59 b2 3e 17 3f bd 3d c2 80 16 3f
       0.33981854 0.34833568 0.09240549 0.5879022
0002d0 ac ee 84 3f 4b 10 21 bf 9f ee b4 3c 60 f9 e2 3d
       1.0385337 -0.62915486 0.02208644 0.11082721
0002e0 7b 6c 73 3e 4d 56 9a be 4c 53 5d be 2c 6a 93 3e
       0.23771851 -0.30143967 -0.21613806 0.2879194
0002f0 b3 95 4e be 06 42 01 be 8e 52 e2 bc 60 29 00 3f
       -0.20174293 -0.12622842 -0.027627256 0.50063133
000300 fb d6 a1 3e 52 4e 9a be 2a 66 47 be 6f b2 cf 3d
       0.3160933 -0.3013788 -0.19472566 0.101414554
000310 7f 11 55 3e a9 d6 cd bc ac 8c 9c 3d 7e a9 e6 3e
       0.20807455 -0.025126772 0.076440185 0.45051187
000320 3c 07 16 3f 15 d9 d2 3e ff a5 86 bf 05 fb 2e 3e
       0.5860479 0.41181245 -1.0519408 0.17087944
000330 f2 e6 2d 3e 1a d4 10 3f c5 64 00 bf 8f 7e 0f 3f
       0.1698263 0.5657364 -0.5015376 0.5605249
000340 e3 da f9 3e 41 c0 ee be b6 94 0e 3f 3a 57 ec 3e
       0.4879981 -0.46631053 0.55695665 0.461603
000350 b1 90 9c 3e 97 d3 1b 3f c9 cf e2 3e 31 80 f8 3d
       0.3057914 0.60869735 0.44299152 0.121338256
000360 e8 90 8e bd 35 44 c9 be 2c fc 59 3e aa 81 4f bf
       -0.069612324 -0.3930985 0.21287602 -0.81057227
000370 c1 3a c4 3e f2 93 47 be 94 16 07 3d c8 c3 2e bf
       0.38326076 -0.1949003 0.032980517 -0.6826749
000380 52 58 be bf ca 19 00 bf 74 8e fc 3e 11 f9 3d bf
       -1.4870703 -0.5003935 0.49327433 -0.7420817
000390 e9 d6 0f 3e 80 8f 99 bd 8c 87 10 be 42 d5 15 3f
       0.14046825 -0.074980736 -0.14114207 0.5852853
0003a0 ee ec 0a 3f f6 ae ef 3e 88 1b 3f 3f 95 cc 3c 3f
       0.54267776 0.46813172 0.74651384 0.7374967
0003b0 30 d5 ef 3e 1b 3c dd 3e 6c 1a b9 3e a8 7b 0d 3f
       0.46842337 0.4320992 0.3615297 0.5526681
0003c0 b8 7b cb bd f3 5c d3 3e ea ee 51 3e 64 53 27 3f
       -0.09935707 0.41281852 0.20501295 0.6536162
0003d0 e3 56 89 3f 46 da b0 3e b0 13 40 3e 0d d1 93 3d
       1.0729641 0.3454153 0.1875751 0.07217608
0003e0 8a 29 ad 3e 9d b3 94 be f6 e3 cc 3d 3a f9 99 bf
       0.33820754 -0.29043284 0.100044176 -1.2029183
0003f0 dd f3 5c be 40 e1 a5 bd d3 8c b0 3e c5 8a 06 3f
       -0.21577401 -0.08099604 0.3448244 0.52555496

fc2.bias f4 [64]
000000 68 c0 17 3f e4 bb c6 bc d5 9d 65 be e8 e6 56 3d
       0.59277964 -0.024259515 -0.2242349 0.052466303
000010 8c 66 8e bf bf 09 96 be 77 65 bb 3e f5 5d 09 be
       -1.1125045 -0.2930431 0.3660085 -0.13414748
000020 3d 76 31 bf 6d 10 df 3c 38 57 4c bc ca 87 be 3d
       -0.6932104 0.027229512 -0.012471966 0.093032435
000030 10 d2 d0 3e 79 b9 d3 3e 1d 63 25 3f f1 b5 82 3e
       0.40785265 0.41352442 0.6460436 0.25529435
000040 74 41 16 bf a6 b2 fe be 8e 1a 07 be 05 46 0c bf
       -0.58693624 -0.49745673 -0.13193724 -0.5479434
000050 13 46 03 3f f6 78 32 be 12 ee 33 bf 98 ee 99 3d
       0.512788 -0.17428955 -0.7028514 0.07516211
000060 64 cf e8 3e 2a c7 ce be be dd 7a bd 5e 77 a8 3e
       0.45470726 -0.40386325 -0.061246626 0.3290357
000070 01 24 9c 3e 5f 5d 5a be c5 b8 8a bf 89 22 ba 3e
       0.3049622 -0.21324681 -1.0837637 0.36354473
000080 ec 54 82 be 47 35 0f 3f 94 5a c3 3e 24 24 04 3f
       -0.25455415 0.5594067 0.38155043 0.51617646
000090 69 a2 b5 3e 56 06 f4 3e 7a b8 d3 3e 0d b5 a1 be
       0.35475472 0.47661084 0.41351682 -0.31583443
0000a0 55 24 8e 3e ff 1f 22 3e 84 bf 08 3e a7 fe 01 3f
       0.27762094 0.15832518 0.13354307 0.50779194
0000b0 20 1e ff 3e a9 fb 18 3f 11 00 c9 3e 24 ca c1 3e
       0.4982767 0.59759 0.39257863 0.37849534
0000c0 8b b8 7e be 1b 8c 18 3f e2 cd 20 3f 4d 60 18 3f
       -0.24875085 0.59588784 0.6281415 0.59521943
0000d0 30 60 6a be ee 81 ca 3d e0 e3 b8 3e cd 11 66 bd
       -0.22888255 0.09888063 0.36111355 -0.05616932
0000e0 c7 9b 04 bf ee 90 f2 be 94 94 97 3e 5f f9 10 be
       -0.518002 -0.47376198 0.29605544 -0.14157628
0000f0 0e c0 33 3f 51 b1 21 bf 16 a9 27 3f ba 38 1d bd
       0.7021493 -0.6316119 0.6549238 -0.038384177

fc3.weight f4 [1, 64]
000000 be 94 ef bd 82 b6 bf bd ca ad ad 3e 5c 72 c1 3e
       -0.11698292 -0.093609825 0.33921653 0.37782562
000010 24 f4 0a 40 0a f6 de 3f ed f5 29 bc 2c c1 ac 3e
       2.1711512 1.7418835 -0.010373575 0.33741128
000020 44 47 d3 3f 94 28 45 bb d9 a3 d0 bc 8c d3 7f be
       1.6506124 -0.0030084 -0.025468754 -0.24983042
000030 38 d4 85 bd a4 eb 5b bf 89 0c 09 be d9 91 4a be
       -0.06534618 -0.85906434 -0.13383688 -0.19782199
000040 f2 d8 77 3f 70 4c 60 3f 27 a2 d4 3e 92 04 87 3f
       0.9681541 0.87616634 0.41529962 1.054827
000050 0e 7c db bd 3f f4 87 3c 24 5c 08 40 e0 4f c1 be
       -0.10717021 0.016595958 2.1306238 -0.37756252
000060 d1 e2 3f bd 86 04 f8 3e e5 48 58 3d 2c 2e 4b bd
       -0.04684717 0.4844095 0.052803893 -0.04960458
000070 76 61 69 bd 09 1c 04 c0 a5 1f 23 40 83 61 cc bc
       -0.05697771 -2.0642111 2.5488064 -0.024948841
000080 8a 19 a0 3e c9 34 23 be d3 4a 0d be f0 25 1d be
       0.31269485 -0.15938105 -0.13798074 -0.15346503
000090 f3 f8 9f bd 2e 11 f4 bc 01 9f e6 bd 39 5a f7 3e
       -0.07811155 -0.029793348 -0.11260796 0.48311022
0000a0 e4 78 b3 bc c4 a5 d8 3e 22 ae 90 be 83 f4 ac 3f
       -0.021908231 0.4231397 -0.28257853 1.3512119
0000b0 f0 7d cb bd 96 5a 0e be b7 9c 20 be 85 f2 08 c0
       -0.0993613 -0.13901743 -0.15684782 -2.1398022
0000c0 a7 b7 0d bb 6e 51 67 be d2 68 2c be 68 47 4a be
       -0.0021624358 -0.22589657 -0.16836861 -0.19753802
0000d0 4b 58 ba 3e 3d 8f 5e be 9b ef 36 bc b8 dd 65 3d
       0.36395487 -0.21734329 -0.011165525 0.05611965
0000e0 53 17 f5 3e d8 fb 72 3f 70 80 08 c0 d4 ab 34 3d
       0.47869357 0.94915533 -2.1328392 0.04410918
0000f0 10 f6 3e c0 63 b0 4c 3f dc 98 22 be ba 6e 5e 3d
       -2.9837685 0.79956645 -0.15878624 0.054304816
