Saved Models/regression_nn_model_v2.pth (torch, 21775 bytes, 5 tensors)

fc1.weight f4 [64, 9]
0	0xbdf3fda3	-0.11913612
1	0xbd7b45fc	-0.06134604
2	0x3eb8bd43	0.36081895
3	0xbcf7ed87	-0.030264629
4	0x3e95b6b2	0.29240948
5	0xbf3b6799	-0.7320495
6	0xbe9ef7d5	-0.31048456
7	0x3f18755f	0.59554094
8	0x3e4f0c45	0.20219524
9	0x3e8827d3	0.26592883
10	0x3ecce8c4	0.40021336
11	0x3f2f33d7	0.68438476
12	0xbd304e3f	-0.04304337
13	0xbc8a443d	-0.016878242
14	0xbe349409	-0.17634596
15	0xbe82b69c	-0.25529945
16	0x3c277c15	0.010222455
17	0xbf0439df	-0.51650804
18	0xbf077795	-0.5291684
19	0xbdb37e1e	-0.08764289
20	0xbdab1e38	-0.08355373
21	0x3eb68e77	0.35655567
22	0x3f102b77	0.5631632
23	0x3d1b2cd5	0.037884552
24	0x3d91e8b8	0.07124466
25	0xbf72f6ba	-0.94907725
26	0x3db77081	0.08957005
27	0xbee83500	-0.45352936
28	0x3e9eec8e	0.31039852
29	0xbe4aefce	-0.1981804
30	0x3ef354ba	0.4752558
31	0x3eda37f1	0.42620805
32	0x3e324a62	0.17411187
33	0x3ee27013	0.4422613
34	0xbe844b4a	-0.2583869
35	0x3efdf192	0.49598366
36	0x3e3239a1	0.17404796
37	0x3eac3d48	0.33640504
38	0x3e4a8980	0.19779015
39	0x3f2767d9	0.65392834
40	0x3f1d6ba4	0.6149237
41	0x3d6668e9	0.056252394
42	0x3edb39f9	0.42817667
43	0xbee9bfe4	-0.45654213
44	0x3de45c5a	0.11150427
45	0x3d5509b8	0.05201122
46	0x3edaf0c8	0.42761827
47	0xbe1b7143	-0.15179925
48	0x3f031df1	0.5121756
49	0xbd4a8e01	-0.04945183
50	0x3eb7cb7c	0.35897434
51	0x3e0679cc	0.131324
52	0xbf2b9022	-0.67016804
53	0x3f1332d6	0.57499444
54	0x3f220905	0.6329501
55	0x388f692c	6.838361e-05
56	0x3ca238b2	0.019802425
57	0xbe84915e	-0.25892156
58	0xbf1880a4	-0.5957129
59	0x3d2e3a5d	0.04253613
60	0x3d3dd719	0.04634771
61	0x3db3a046	0.08770804
62	0x3db77d44	0.089594394
63	0xbecbcb10	-0.39803362
64	0x3ef1126b	0.47084364
65	0x3e723842	0.23654273
66	0xbe7ce681	-0.24697305
67	0xbf33e8e5	-0.70277244
68	0x3e7d2843	0.2472239
69	0xbe7575cb	-0.23970716
70	0xbe2ac9cb	-0.1667854
71	0xbf1cf37b	-0.6130902
72	0x3d736b37	0.05942842
73	0xbe2924d8	-0.16517961
74	0x3d556cf2	0.05210585
75	0x3e653500	0.22383499
76	0x3f61567f	0.8802261
77	0xbd3d78b6	-0.046257697
78	0xbe599556	-0.21248373
79	0x3f06e1ba	0.5268818
80	0x3f0b7c26	0.5448631
81	0x3e7c0920	0.24612856
82	0x3e8064de	0.25076956
83	0x3ecca2ad	0.39967862
84	0xbeb1d3c5	-0.3473188
85	0xbf1a3ea7	-0.6025185
86	0x3e75d789	0.24008001
87	0x3e1e6e73	0.1547182
88	0x3ebc4cff	0.36777493
89	0x3e4e4f9d	0.20147558
90	0x3ef77a9d	0.48335734
91	0xbe7cd414	-0.24690276
92	0xbf291809	-0.660523
93	0xbeba1fb7	-0.36352322
94	0xbe6557b6	-0.2239674
95	0x3e6ca225	0.23108728
96	0x3e4a8296	0.19776377
97	0x3ddae751	0.10688651
98	0x3f1a435c	0.6025903
99	0xbc7a97a7	-0.015294946
100	0x3edf53c8	0.43618608
101	0x3df90c25	0.121605195
102	0xbe622fc4	-0.22088534
103	0x3edb0974	0.4278065
104	0xbe98e3c1	-0.29861262
105	0x3eae4f66	0.3404495
106	0x3f2a1e4a	0.6645247
107	0xbe9b0b27	-0.30281946
108	0xbe641d8f	-0.222769
109	0xbdba3101	-0.09091378
110	0xbe3da116	-0.1851848
111	0x3ef7c35a	0.4839123
112	0x3edebb75	0.43502393
113	0x3f0b4733	0.54405516
114	0x3e9392e9	0.2882302
115	0xbe867cb0	-0.26267004
116	0x3f1ee0d8	0.62061834
117	0xbe808719	-0.2510307
118	0xbe72450b	-0.2365915
119	0xbd1008b9	-0.03516457
120	0xbee6e56f	-0.4509692
121	0x3dbaf01e	0.0912783
122	0x3f3a6a08	0.7281804
123	0xbf2bd061	-0.67114836
124	0x3eee23fa	0.46511823
125	0x3d9b0cc6	0.07570796
126	0xbea130fa	-0.3148268
127	0xbe386212	-0.18006161
128	0xbedc0f4b	-0.42980418
129	0x3e96c959	0.2945049
130	0x3ee74870	0.45172453
131	0x3e8a3934	0.26996768
132	0x3ece4e67	0.4029419
133	0x3efdbbb3	0.49557266
134	0x3f0412df	0.51591295
135	0x3f8bae51	1.0912572
136	0xbc899f8a	-0.016799707
137	0xbe4c245f	-0.1993575
138	0x3e8ca052	0.27466065
139	0x3ec7afae	0.3900122
140	0x3dfcff22	0.1235335
141	0x3f266abf	0.6500663
142	0x3e652470	0.22377181
143	0x3e16f696	0.14742503
144	0x3e911059	0.28332785
145	0x3ee1254e	0.43973774
146	0x3edcaa0f	0.43098494
147	0xbe8e11f9	-0.27748087
148	0x3ea7b5ac	0.32755792
149	0x3ef6957e	0.48160928
150	0xbdd321f9	-0.10309214
151	0x3e8b28f8	0.27179694
152	0xbeddfa91	-0.4335523
153	0x3fa5e8cc	1.2961669
154	0xbd1ff8b4	-0.03905554
155	0xbe41a6c5	-0.18911274
156	0xbcb8ef21	-0.022574963
157	0x3edf2804	0.43585217
158	0x3ec98d6b	0.39365706
159	0x3ebe997b	0.3722647
160	0x3dd6f964	0.10496786
161	0x3d64bbd8	0.055843204
162	0xbe392707	-0.18081294
163	0xbd20f0b9	-0.03929207
164	0x3ded31a6	0.11581735
165	0xbeed296f	-0.46320674
166	0xbeb66165	-0.3562118
167	0x3e8b5cd4	0.2721926
168	0x3f47f0eb	0.78101987
169	0x3ec21c2b	0.37912115
170	0xbf792ab2	-0.9733077
171	0xbd986a0d	-0.074421026
172	0x3ec4c10e	0.3842854
173	0x3efe3a56	0.49653882
174	0xbdd47852	-0.10374512
175	0xbe505e24	-0.20348412
176	0xbf50b96d	-0.8153294
177	0xbf0ce65a	-0.5503899
178	0x3ee4c512	0.44681603
179	0xbe6848cb	-0.22684018
180	0xbe0f0685	-0.13967331
181	0xbe27b60a	-0.16378036
182	0xbeea93b9	-0.45815828
183	0x3ec7cf5b	0.39025387
184	0x3ee5b9b2	0.44868237
185	0xbef0dec0	-0.47044945
186	0xbda98014	-0.08276382
187	0x3e983523	0.2972804
188	0x3f02586b	0.50916165
189	0x3f5b6b5c	0.8571069
190	0x3edc4806	0.430237
191	0x3e289223	0.16461997
192	0xbcf7801a	-0.03021245
193	0xbef565a5	-0.4792911
194	0xbf4af889	-0.79285485
195	0x3f3d9d3e	0.7406806
196	0x3e3b6f3f	0.18304156
197	0xbe778dbc	-0.24175161
198	0xbed27ce5	-0.41110912
199	0xbeb612bd	-0.3556117
200	0xbf0abda5	-0.54195625
201	0xbd35b621	-0.044363145
202	0x3eeacd88	0.45859933
203	0x3edc73b1	0.43057016
204	0xbf036b08	-0.5133519
205	0x3dab1bc0	0.08354902
206	0xbe0a8232	-0.13526228
207	0xbf0b351a	-0.543779
208	0x3ebd03ae	0.3691687
209	0x3c2a8b04	0.0104091205
210	0x3f448e87	0.7677998
211	0x3ebb9407	0.36636373
212	0x3e34e516	0.17665514
213	0x3ec189da	0.37800485
214	0xbefa3f45	-0.48876396
215	0x3db95efe	0.090513214
216	0x3f335462	0.7005063
217	0xbe9e3df1	-0.30906633
218	0x3e4f4f9f	0.20245217
219	0x3e8a6347	0.27028868
220	0xbd9d718e	-0.076876745
221	0xbf47ce4a	-0.7804915
222	0xbd3d9d5f	-0.04629266
223	0x3ebd2788	0.36944222
224	0x3da93076	0.08261196
225	0x3ea86c26	0.3289501
226	0x3e93a3d8	0.2883594
227	0x3f2772b2	0.65409386
228	0xbee056f8	-0.43816352
229	0x3c8a99df	0.016919075
230	0xbe36509f	-0.17804192
231	0xbeb8faf0	-0.3612895
232	0xbde57a6d	-0.112049915
233	0xbefcc3f8	-0.49368262
234	0xbf461143	-0.7737009
235	0x3ebb7756	0.36614484
236	0xbd4c9902	-0.049950607
237	0x3e9aac5a	0.3020962
238	0x3eaaeef0	0.3338542
239	0x3d9edf9d	0.077574946
240	0x3e1569e4	0.14591175
241	0x3ea24ae0	0.3169775
242	0xbe2d2afe	-0.16910931
243	0xbe853a27	-0.2602093
244	0x3e21daf1	0.15806176
245	0x3ea92c3a	0.33041555
246	0x3f03cb1a	0.51481783
247	0x3ee3b044	0.44470417
248	0xbec9b4a7	-0.3939564
249	0x3e555dee	0.20836613
250	0x3e1c4f14	0.15264541
251	0x3e0650fa	0.13116828
252	0x3f2d77fd	0.6776121
253	0xbdaa6572	-0.083201304
254	0x3c1de07e	0.009636043
255	0x3e014bb1	0.1262653

fc1.bias f4 [64]
0	0x3f8bcc5d	1.0921742
1	0x3f4f3f8b	0.80956334
2	0xbf7afd4e	-0.9804276
3	0xbf5974d7	-0.8494391
4	0xbf109bcb	-0.5648772
5	0xbee80a47	-0.4532034
6	0xbf284900	-0.6573639
7	0x3eec68f4	0.46173823
8	0x3f35310b	0.7077796
9	0x3e2fe333	0.17176513
10	0x3d0e2587	0.034703758
11	0xbe25436b	-0.16138999
12	0xbf2eb0dd	-0.6823862
13	0x3f002f84	0.50072503
14	0xbf21f580	-0.6326523
15	0xbf00a047	-0.50244564
16	0x3ea4f8c7	0.32221052
17	0x3f22925d	0.6350458
18	0x3ee7af64	0.45251
19	0x3e10240c	0.14076251
20	0x3d98739a	0.07443924
21	0x3ed3a9be	0.4134044
22	0x3f46699d	0.77504903
23	0xbf6838ef	-0.90711874
24	0x3ef53032	0.47888333
25	0x3f2cffd3	0.67577857
26	0xbf8c83d8	-1.0977736
27	0xbee5bb3a	-0.44869405
28	0x3e1056fb	0.1409568
29	0xbf13ec9c	-0.5778291
30	0xbd0ab82d	-0.03386705
31	0xbf042d43	-0.51631564
32	0x3f021e93	0.508279
33	0xbdb4aefc	-0.08822438
34	0x3e5167ac	0.20449704
35	0x3f5a3f89	0.85253197
36	0x3f435307	0.76298565
37	0x3f884962	1.0647395
38	0x3ed79c25	0.42111316
39	0x3ee25720	0.44207096
40	0xbe621e52	-0.22081879
41	0xbe619d2f	-0.22032617
42	0x3e91478a	0.28374892
43	0x3f33cbff	0.7023315
44	0xbed98dba	-0.4249094
45	0xbf228b79	-0.6349407
46	0xbe50eafe	-0.20402142
47	0x3f38b698	0.72153616
48	0x3f02c01b	0.5107438
49	0xbd5dbeb9	-0.054136965
50	0x3f21c351	0.63188654
51	0x3f9e79a8	1.2380877
52	0x3ef613d2	0.48061997
53	0x3e9f1ea4	0.31078064
54	0xbf248c82	-0.642769
55	0x3e91366a	0.28361827
56	0xbd855f27	-0.065122895
57	0x3d94a54b	0.0725809
58	0xbf827ba4	-1.0193982
59	0x3ef4509c	0.4771775
60	0x3f805fc9	1.0029231
61	0xbdd510f1	-0.10403622
62	0x3faf5abe	1.3699567
63	0xbf2a82c7	-0.666058

fc2.weight f4 [64, 64]
0	0x3eaaa5cc	0.33329618
1	0x3ee1bd3b	0.44089684
2	0xbeebf1fc	-0.46083057
3	0xbd1134ce	-0.03545075
4	0x3d177ba8	0.036983162
5	0xbc00b0f8	-0.007854693
6	0xbd7dc6e9	-0.061957274
7	0xbd9a3dcd	-0.07531319
8	0x3ddcf987	0.10789781
9	0x3ea44e72	0.320911
10	0xbe7484cb	-0.23878781
11	0x3e8fc77d	0.28081885
12	0xbd8228ce	-0.06355439
13	0x3eccbf2b	0.399896
14	0x3d8d812e	0.06909405
15	0x3f2b9804	0.6702883
16	0x3ea20bd2	0.31649643
17	0x3e56908e	0.2095358
18	0x3e261b0f	0.1622126
19	0x3e62e3ba	0.22157183
20	0xbbb6f4ab	-0.005583366
21	0xbe9bab24	-0.30404007
22	0x3f1a3c17	0.6024794
23	0xbe8d68a8	-0.2761891
24	0x3e662e75	0.2247866
25	0xbe502fb0	-0.20330691
26	0xbea49704	-0.32146466
27	0x3d7a087f	0.06104326
28	0xbe18d63c	-0.14925474
29	0xbdad0bac	-0.08449492
30	0x3ddd8a4a	0.10817392
31	0xbdcd06c1	-0.10011054
32	0x3f05c7d4	0.5225804
33	0x3e000d1d	0.12505002
34	0x3de02287	0.109440856
35	0x3f24cd87	0.6437611
36	0x3eb8e943	0.36115465
37	0x3de53494	0.11191669
38	0xbe248466	-0.16066131
39	0x3e9eccc7	0.31015608
40	0x3e362bcb	0.17790143
41	0x3de022eb	0.1094416
42	0x3ec50ca4	0.38486207
43	0x3eabbc58	0.33542132
44	0xbd907c79	-0.07054991
45	0x3e9986e2	0.2998572
46	0xbe23b194	-0.1598571
47	0x3ed343eb	0.41262755
48	0x3e52c121	0.20581485
49	0x3e978598	0.2959411
50	0x3eabd881	0.33563617
51	0xbe70ca5e	-0.23514697
52	0xbd5ebb04	-0.05437757
53	0x3f00a68c	0.5025413
54	0xbe3e10b1	-0.18561055
55	0x3eb01347	0.34389707
56	0xbe50f95e	-0.20407626
57	0x3dcf3ef9	0.10119433
58	0xbe392378	-0.18079937
59	0x3e81e2c8	0.25368333
60	0x3de3f0e8	0.111299336
61	0xbe5fc39a	-0.2185196
62	0x3e7a33ca	0.24433818
63	0x3ce33236	0.027733903
64	0x3e78b7b2	0.24288824
65	0xbeb359ff	-0.350296
66	0x3f421dc2	0.75826657
67	0x3eaac867	0.3335602
68	0x3ecdb459	0.40176657
69	0x3e807fad	0.2509741
70	0xbda42ba7	-0.080161385
71	0x3ef70266	0.48244017
72	0x3e6ad37a	0.22932234
73	0xbd2775bb	-0.04088376
74	0x3d0f96f1	0.03505606
75	0xbe389ef0	-0.1802938
76	0x3ef820d9	0.4846256
77	0xbd1d275b	-0.03836761
78	0x3ef92801	0.48663333
79	0xbf16f650	-0.58969593
80	0xbe4f054b	-0.20216863
81	0xbe485aca	-0.19565883
82	0xbe458be3	-0.19291644
83	0x3d931210	0.071811795
84	0x3e342260	0.17591238
85	0x3f076817	0.52893203
86	0xbdbdd218	-0.09268588
87	0x3ee11ff7	0.439697
88	0xbdec28d7	-0.11531227
89	0x3f0880a9	0.5332132
90	0x3efc3c71	0.49264863
91	0x3e62b1a1	0.22138073
92	0x3ed5bc84	0.41745389
93	0x3eb7efc7	0.35925123
94	0xbe004682	-0.12526897
95	0x3ebe0ed8	0.371207
96	0xbe63e69b	-0.22255938
97	0xbe6c0e1e	-0.2305226
98	0x3e1f6258	0.15564859
99	0xbe4e042a	-0.20118776
100	0xbe0c30bc	-0.13690466
101	0xbd447d06	-0.047970794
102	0x3e94f348	0.2909186
103	0xbd9c12ed	-0.07620797
104	0xbe6aa74e	-0.22915384
105	0x3ee7303a	0.4515398
106	0xbe6ce3a1	-0.23133709
107	0x3e26136e	0.1621835
108	0x3e78c9f3	0.24295788
109	0xbe4afc76	-0.19822869
110	0x3e6d7c4a	0.23191944
111	0xbdd92927	-0.10603552
112	0x3dab9894	0.08378711
113	0xbeee167e	-0.46501535
114	0xbe576550	-0.21034741
115	0x3f35a18d	0.7094963
116	0x3ee1422f	0.43995807
117	0xbeec581e	-0.46160978
118	0x3effcf01	0.4996262
119	0xbe387d47	-0.1801654
120	0x3ece7e6b	0.40330824
121	0x3eba69ee	0.36408943
122	0x3eeb4507	0.459511
123	0xbe4d8103	-0.20068745
124	0x3dc2bd5f	0.09508776
125	0x3f02708c	0.5095298
126	0x3eaaa8cb	0.33331904
127	0x3e323efe	0.17406842
128	0x3e31a35c	0.17347473
129	0x3f09a25e	0.5376338
130	0xbef7e21c	-0.48414695
131	0xbe72a42d	-0.2369544
132	0xbe239e33	-0.15978317
133	0x3cf9f6ff	0.030513285
134	0xbd98e888	-0.07466227
135	0xbe8a8964	-0.27057946
136	0x3e85658b	0.26054034
137	0x3ec13b15	0.3774039
138	0xbe5bfcb5	-0.21483119
139	0x3e4d5097	0.20050274
140	0xbe59a1c4	-0.21253115
141	0x3eee3a81	0.4652901
142	0xbdd62330	-0.1045593
143	0x3efb0305	0.4902574
144	0x3ec21e11	0.37913564
145	0x3df32d00	0.118738174
146	0x3dd1667a	0.10224624
147	0x3e4bb53e	0.19893357
148	0xbcc5ea72	-0.024159644
149	0xbe179c92	-0.1480582
150	0x3f045693	0.516946
151	0xbe189ad4	-0.14902812
152	0x3e863591	0.26212743
153	0xbe7fcec0	-0.24981213
154	0xbe75c74b	-0.24001805
155	0xbdcfc3ae	-0.10144745
156	0xbe40b5b5	-0.18819316
157	0xbd9809eb	-0.07423767
158	0x3db7c04c	0.089722246
159	0x3cc6748d	0.024225498
160	0x3f1e188e	0.6175622
161	0x3db69953	0.08915963
162	0x3e98396d	0.29731312
163	0x3efcd1ba	0.4937876
164	0x3ee39871	0.4445224
165	0x3e6a37c7	0.2287284
166	0x3a73118e	0.000927233
167	0x3e297ea7	0.1655222
168	0x3e8226ca	0.2542022
169	0x3dc1c5ca	0.094615534
170	0x3e9cf42b	0.30655035
171	0x3eaf2f00	0.34215546
172	0xbe1ac307	-0.1511346
173	0x3eaa9253	0.33314762
174	0x3ca7604a	0.020431656
175	0x3edd7afe	0.43257898
176	0x3b3c6c36	0.0028751022
177	0x3e82fd1d	0.25583735
178	0x3e82e720	0.2556696
179	0xbea1829d	-0.31544963
180	0xbdcf6196	-0.10126035
181	0x3ee7fe88	0.4531138
182	0xbd4d0660	-0.050054908
183	0x3e4425f3	0.19155101
184	0xbe14ade8	-0.14519465
185	0xbd3cf124	-0.046128407
186	0xbdc2e5a6	-0.09516458
187	0x3ed99d07	0.42502615
188	0x3da0e523	0.07856204
189	0xbec10890	-0.37701845
190	0x3e2be9e1	0.16788436
191	0x3ded3be6	0.1158369
192	0x3e994796	0.29937428
193	0x3f018a90	0.50602055
194	0xbeba5732	-0.3639465
195	0xbe17c7df	-0.14822339
196	0xbd41aeae	-0.04728573
197	0xbc88ce9a	-0.016700078
198	0xbd6b2937	-0.057412352
199	0xbe636d31	-0.22209622
200	0x3e62b059	0.22137584
201	0x3e84da89	0.2594798
202	0xbe313ec4	-0.173091
203	0x3e544909	0.20730986
204	0x3b8b9c0d	0.004260546
205	0x3ef01115	0.46888033
206	0xbe2623e6	-0.16224632
207	0x3f101036	0.56274736
208	0x3eac192e	0.3361296
209	0x3e37992e	0.17929527
210	0x3e22612e	0.15857384
211	0x3e0903a8	0.13380301
212	0x3d5493ce	0.05189877
213	0xbe312729	-0.17300095
214	0x3ec707ac	0.3887304
215	0xbdf1b608	-0.11802298
216	0x3e9f5fc2	0.31127745
217	0xbe9326fd	-0.28740683
218	0xbe7c8543	-0.2466021
219	0x3d6cf8bb	0.057854395
220	0xbdead8ae	-0.114671096
221	0xbdcb7ab0	-0.0993551
222	0x3e1fc285	0.15601547
223	0x3bc114d0	0.0058923736
224	0x3f1b6b7c	0.60710883
225	0x3e463122	0.1935468
226	0x3e8cce84	0.2750131
227	0x3f340d36	0.7033266
228	0x3ebb72c2	0.3661099
229	0x3e129be9	0.14317288
230	0x3cf48548	0.02984871
231	0x3dff57f5	0.12467948
232	0x3e9d2d7e	0.3069877
233	0xbdcbdab1	-0.099538215
234	0x3ea3cfac	0.3199438
235	0x3e5bffb5	0.21484263
236	0xbd2bcb79	-0.041942094
237	0x3e42e58f	0.19032882
238	0xbd469495	-0.048481543
239	0x3ef9d749	0.48797062
240	0x3e4d4b68	0.20048296
241	0x3e60a872	0.21939257
242	0x3ec4162a	0.3829816
243	0xbe90694e	-0.2820534
244	0xbe1481fd	-0.14502712
245	0x3ea4d79b	0.32195744
246	0xbe2b70d0	-0.16742253
247	0x3e70c8db	0.2351412
248	0xbe487081	-0.19574167
249	0xbd0a112e	-0.03370779
250	0xbe41825c	-0.18897384
251	0x3e8fc10f	0.2807698
252	0x3d4ad671	0.049520914
253	0xbeb31514	-0.3497702
254	0x3d82e854	0.06391969
255	0xbd174998	-0.03693542

fc2.bias f4 [64]
0	0x3e87b5c4	0.26505864
1	0xbd37561c	-0.044759855
2	0x3ebd0391	0.36916783
3	0x3ebae157	0.36500046
4	0x3ec5c24b	0.38624796
5	0x3eb8084c	0.3594383
6	0x3e82556b	0.25455794
7	0x3e821827	0.25409052
8	0x3e9c23ca	0.30496055
9	0xbd89d29d	-0.067296244
10	0x3d04cb92	0.032420702
11	0x3ef0f7fe	0.47064203
12	0x3d853358	0.06503934
13	0x3ddd3444	0.108009845
14	0x3eabc552	0.3354898
15	0x3eb76233	0.35817108
16	0x3ebda1f8	0.37037635
17	0xbd3554c9	-0.04427031
18	0x3e8661d5	0.26246515
19	0x3eee1f7f	0.46508405
20	0x3e7003f9	0.23439015
21	0x3dc82184	0.097720176
22	0x3e7897db	0.24276678
23	0x3eb89334	0.36049807
24	0x3f59fa67	0.8514771
25	0xbeb4c2dc	-0.35304916
26	0xbbf236ed	-0.0073918016
27	0x3ee09d66	0.43870085
28	0x3d7cf6db	0.061758857
29	0x3efc410b	0.49268374
30	0x3ed237ae	0.41058105
31	0x3eec9c32	0.46212918
32	0x3eb4acf7	0.35288212
33	0x3d4e0397	0.050296392
34	0x3edb81e1	0.42872527
35	0xbccedb19	-0.025250958
36	0x3dc623fd	0.09674833
37	0x3daea2db	0.08527156
38	0x3eb0b0b7	0.34509823
39	0x3d9e3e4d	0.07726727
40	0xbd1c3788	-0.038138896
41	0x3e91721a	0.28407365
42	0x3ef80fac	0.48449457
43	0x3d3464c1	0.0440414
44	0xbd831240	-0.06399965
45	0x3ee7f64d	0.453051
46	0x3ebdd5ae	0.37077087
47	0xbe8df05f	-0.2772245
48	0x3ec37b50	0.38180017
49	0x3eb06c34	0.34457552
50	0x3e91f33d	0.2850589
51	0xbaf9aa15	-0.0019047881
52	0x3d8aa83c	0.067703694
53	0x3d064c26	0.032787465
54	0x3f4329de	0.7623576
55	0xbd0019f7	-0.031274762
56	0x3e7ecce0	0.24882841
57	0xbf2450a8	-0.6418557
58	0x3eba55e5	0.36393657
59	0x3d8ac77a	0.067763284
60	0x3d6e99cf	0.058252152
61	0x3ed39cdd	0.41330615
62	0xbd7e176f	-0.062034067
63	0x3f2643cb	0.64947194

fc3.weight f4 [1, 64]
0	0xbf057d84	-0.52144647
1	0x3f042fe7	0.51635593
2	0xbf17844b	-0.5918624
3	0xbf0fc141	-0.5615426
4	0x4023bb8f	2.5583227
5	0xbf10294e	-0.56313026
6	0xbf0abbcf	-0.54192823
7	0xbf0336ff	-0.5125579
8	0xbf000ecf	-0.50022596
9	0x3f08ede3	0.53487986
10	0x3f0f0020	0.55859566
11	0xbf0eae32	-0.5573455
12	0x3edd50e4	0.43225777
13	0xbefd971d	-0.49529353
14	0xbf1a3fd9	-0.60253674
15	0xbee60151	-0.4492288
16	0xbef533e3	-0.4789115
17	0x3eec00b3	0.46094283
18	0xbf1180a0	-0.5683689
19	0xbf115f02	-0.56785595
20	0xbf1b3e9c	-0.6064241
21	0x3ee238ee	0.4418406
22	0xbf1256a6	-0.57163465
23	0xbf063f4a	-0.5244032
24	0x3fb57761	1.4177057
25	0x3f40fd8a	0.7538687
26	0x3eeee16a	0.46656352
27	0xbf00824d	-0.50198823
28	0x3db08276	0.086186334
29	0xbf179544	-0.59212136
30	0xbef71293	-0.48256359
31	0xbf160bba	-0.58611643
32	0xbf1ed6a7	-0.62046283
33	0x3efc9445	0.4933187
34	0xbf0a68a9	-0.5406595
35	0x3f05dc96	0.5228971
36	0x3eed85db	0.46391186
37	0x3f0a493f	0.54018015
38	0xbf15e53a	-0.58552897
39	0x3efdc5d0	0.4956498
40	0x3cc18967	0.023625089
41	0xbf1c4afe	-0.6105193
42	0xbf001c0e	-0.5004281
43	0x3d2de671	0.042456094
44	0x3ee1d518	0.4410789
45	0xbef6dac4	-0.4821378
46	0xbeed2060	-0.46313763
47	0x3eff1615	0.49821535
48	0xbef27b22	-0.47359568
49	0xbf06e595	-0.52694064
50	0xbf27c5ef	-0.655364
51	0x3ef77882	0.48334128
52	0x3d7704ee	0.060307436
53	0x3f147fc6	0.58007467
54	0x3fd7a210	1.6846333
55	0x3ef17311	0.471581
56	0xbf0c2bb6	-0.547542
57	0x3f8c9ac3	1.098473
58	0xbf17d591	-0.5931025
59	0xbd0d255c	-0.034459457
60	0x3eef435f	0.46731088
61	0xbf0c8b15	-0.5489972
62	0x3f1335d6	0.5750402
63	0x3fe7f306	1.812104
