Saved Models/regression_nn_model_v2.pth (torch, 21775 bytes, 5 tensors)

fc1.weight f4 [64, 9]
00000000: c6e3 6a3f 6219 b13d 62c5 5f3e 92c6 dabe
00000010: 32c5 26be 5d90 203e 37bb c8bd 15fb 303e
00000020: c274 52be a825 83be 23f1 c2be de7a 823e
00000030: b503 ddbe 60b5 703e 9d14 783e b04f 493e
00000040: ec1c 04bf f6f7 ae3c 870b 0ebf c8e5 5e3e
00000050: 5dbb 44be b0de b13e 25d1 723e 7a81 c93d
00000060: 8a8b f43e ca1b 1b3e edb9 da3e a742 783f
00000070: 5a26 0cbe 9a73 dbbc 2757 d9be 3aa2 073f
00000080: 4b07 d43e 6042 783e 1eec 5c3e c1bc 0ebd
00000090: 07f5 a7be e536 f93d 7c0e cebe 30ea 2f3f
000000a0: 6b4c 453e dc6a 143f 1899 8f3e f962 fabe
000000b0: 9f3a 083f 93f7 32be eb45 40bd f600 a5be
000000c0: b91b fd3e 8476 073f 1ea7 cf3e 7b74 1d3e
000000d0: bf24 55bf 3169 e43e 80b4 b33f 223f e3bd
000000e0: 1387 303e 2dba 303e 99dc 7e3d 068b b63d
000000f0: 432a 2b3e cd83 903e c93c 213e 7833 f13d
00000100: cefd d2be 1841 e0bd fc3c f2bb 4f52 cabd
00000110: c247 7cbf 2d1a 77be e6b2 c23e 541c 443e
00000120: b194 59bd 2805 e33e 5cdd 133f df89 213f
00000130: 3612 c83e 7229 a33e 3a1d 013c 63cd 7dbe
00000140: 5bc7 b2be a842 60be cd17 a53d b453 943e
00000150: 9d96 833e ddbe 363f b83c 92bd 5417 803e
00000160: c582 51bf cfe9 0f3f 1216 593f 45fa 0c3f
00000170: 1b94 a7be 5e3d 103f 184f 56be 66a8 acbd
00000180: 4934 093e da61 b93d 0b30 3f3e 150d 273d
00000190: 95e2 f63e a2cc 163f 0872 0b3f c231 a83e
000001a0: a495 c13e 5b80 c03e a9db c4be a699 cf3c
000001b0: 06f5 a1be 45f9 bdbc 9ac7 5fbe 5a8d 973e
000001c0: b966 b83e 63ac 54be 207f 1cbd 5d88 1c3e
000001d0: bc3d 1c3f 55b5 3ebf fdd2 5fbe 8c97 cb3e
000001e0: 0af4 9fbe b9a5 95be bf8f 99be 8330 1fbf
000001f0: 1444 d33d 4101 c9bd ab08 773f 9073 a83e
00000200: de78 81be abe1 753e 0550 253c 7ee1 2e3f
00000210: e651 893e ed59 c33d 3c6b e7bc 78a0 a0be
00000220: a693 66bd c229 59be ad97 303f 5454 a73e
00000230: 2312 1b3f 8a7c 25be 60a8 43bf 7091 0d3f
00000240: e300 bb3d 97d3 343c 0524 373d 6be4 a53e
00000250: 7d7f 883e 0731 0dbe 4e36 ad3e aaa9 11be
00000260: a40a e73e 14e7 1cbe cb0d 5b3f 6b74 333f
00000270: dbda 5c3e 9a31 2dbd 29cc 06be 8fd5 3c3e
00000280: b6df b53e ba3a da3e d905 a03e 89c8 613e
00000290: d2dc 093f feb2 963d 6028 ac3c dbfb fa3e
000002a0: 211a f63d 9b3a a8bd 971f cabe 9c8a 36be
000002b0: 38ab fcbd 3e0b 823e 8707 2b3f 90d3 2e3e
000002c0: cfde 27bd 1605 f6bc 08d1 46bf 67f5 153e
000002d0: e06a 3cbf e881 d73d 6b84 e5be 2be6 0b3f
000002e0: f53e e1bd f4a0 563d 3901 e43c 0c2a cc3e
000002f0: 7f14 aa3e ebd4 283d 58be b03e 16d5 cc3e
00000300: 124f 8dbd 583a 9c3d 2029 9abd 65a7 a43d
00000310: 4f29 883e ab5a c1be a552 bd3d 650d 10be
00000320: a774 ee3e 79c4 a4bf 68a8 d0be 066a 3abf
00000330: 6eea c13e 5d98 193f 44d9 15bf b70e c03e
00000340: afd1 9abe 6a14 f03d e86a 35bd 445e 653e
00000350: 59b8 923f 6879 dabe 5708 a23e 7ac0 c6bd
00000360: 1cbd 9bbe aee6 d0be 1fcb d9be c936 be3e
00000370: d859 033f 375c 34be 189e 9d3e d3b4 b13e
00000380: 7ec5 483e c76e 16bf e386 65be c9ad fe3d
00000390: c68b b83e 08df 043f b449 65bd 0e09 b23e
000003a0: 93dd b23e b844 7e3e 1f18 21bf e674 3d3e
000003b0: a8f3 01be 28d2 e23e 407c ab3e b1f2 88be
000003c0: cf54 e03e a1c9 ba3e 1197 ae3e 10c4 ffbe
000003d0: 81c9 48be 8396 5dbe 3603 b9bc 769d 1fbf
000003e0: 8945 503e c368 f8be f513 7bbd b04a d03d
000003f0: b9ce 51be 55ad 833d eafd 91bd b374 91be
0.91753805 0.086474195 0.2185264 -0.42729622 -0.16286162 0.1568007 -0.098013334 0.1728328
-0.20552352 -0.25614667 -0.38074598 0.25484365 -0.4316689 0.23506689 0.24226613 0.19659305
-0.5160663 0.021358471 -0.5548634 0.21767342 -0.19212098 0.3474021 0.23712595 0.09839149
0.4776271 0.1514732 0.42719975 0.96976703 -0.13686505 -0.026788522 -0.42449304 0.52981913
0.41411814 0.2424407 0.21574447 -0.03484798 -0.3280413 0.121686734 -0.40245426 0.68716717
0.19267432 0.57975554 0.2804649 -0.48903635 0.5321445 -0.17477255 -0.04694168 -0.32227296
0.49435213 0.52915215 0.40557188 0.15376465 -0.83259195 0.44611505 1.4039459 -0.11096026
0.17239027 0.1725852 0.062222097 0.08913235 0.1671534 0.28225556 0.15745844 0.11777395
-0.41209263 -0.10949916 -0.007392524 -0.0987898 -0.98546994 -0.24131079 0.38027114 0.19151431
-0.05312032 0.4433987 0.5775964 0.63101 0.39076394 0.31867558 0.007880503 -0.2478538
-0.3491772 -0.21900427 0.0806118 0.2897011 0.25700846 0.71384984 -0.071404874 0.25017798
-0.81840163 0.5621614 0.847993 0.5506938 -0.32730183 0.5634364 -0.2092861 -0.08430557
0.13398851 0.09051867 0.1867067 0.04078396 0.48219743 0.58905995 0.5447087 0.32850462
0.3780948 0.37597927 -0.38448837 0.02534182 -0.3163225 -0.02319015 -0.21853486 0.2960003
0.3601587 -0.20768885 -0.038207173 0.15286393 0.610317 -0.7449544 -0.2185783 0.3976406
-0.31240875 -0.29228 -0.29992482 -0.621834 0.10315719 -0.09814692 0.964976 0.32900667
-0.25287527 0.24011867 0.010089879 0.68312824 0.26820296 0.09538636 -0.028249376 -0.31372428
-0.056293152 -0.21207336 0.6898144 0.32681525 0.6057455 -0.16160789 -0.76428795 0.55300045
0.091310285 0.011036775 0.044712085 0.32400832 0.26659766 -0.13788234 0.33830494 -0.14224878
0.45125306 -0.15322524 0.8556792 0.70099515 0.21567862 -0.04228363 -0.13163818 0.18440841
0.3552224 0.4262293 0.3125446 0.22049154 0.5385257 0.07358359 0.021015346 0.49020275
0.120167024 -0.08214303 -0.39477226 -0.17826313 -0.12337345 0.25399202 0.6680836 0.17072892
-0.04098397 -0.030031722 -0.77662706 0.14644395 -0.7360058 0.105228245 -0.4482759 0.54648083
-0.10998336 0.05239959 0.027832614 0.3987583 0.33218762 0.04121868 0.3452022 0.40006322
-0.06899847 0.07628316 -0.07527375 0.080397405 0.26594016 -0.37764487 0.09244279 -0.1406761
0.46573374 -1.2872459 -0.40753484 -0.7281803 0.37874168 0.5999811 -0.58534646 0.37511227
-0.302381 0.11722644 -0.044291407 0.2239924 1.1462508 -0.4267075 0.31646988 -0.09704681
-0.30417717 -0.40800995 -0.42537782 0.37151173 0.51308966 -0.17613302 0.30784678 0.3470827
0.19606587 -0.5876278 -0.22414736 0.12435491 0.3604414 0.5190282 -0.055978492 0.34772533
0.34934673 0.24830902 -0.6292743 0.18501624 -0.12690604 0.44300961 0.33493233 -0.2674766
0.43814704 0.36481956 0.3409963 -0.4995427 -0.19608118 -0.21639447 -0.022584539 -0.6234964
0.20339026 -0.48517427 -0.06129833 0.101704955 -0.20489015 0.06429545 -0.071285084 -0.28409347

fc1.bias f4 [64]
00000000: e032 973f 7215 763f 09af 18bf dc72 6abd
00000010: b4e1 84bf 5cad 58bf 2241 ba3e 81d3 503f
00000020: 0419 80bd 2215 0ebf f11d b2be d4ad 24be
00000030: a81e 8a3e 31c7 4e3f 609b 8abe 688e 6cbf
00000040: c20a 923e 2e98 293f aeac d03e d782 4bbf
00000050: 1469 4fbf d22e 173f 206c 043f fd0d 0c3f
00000060: 8f00 b7be 8b47 7abf 595f 03bf b6c0 823f
00000070: 448f b33e ed73 653f 7738 6dbe 8845 313f
00000080: e691 9a3e 87bf 0abf 2df2 113f b88f 173f
00000090: 20f3 1abc 615d 1a3f bf04 e63d 7824 4b3c
000000a0: c254 99be f9f6 e5be 539c bbbe 907e 8b3f
000000b0: a6f5 983e 7c31 5bbe 0d7b 083e d7b2 65bf
000000c0: 4cdb 3bbc 9195 7abf 0ce7 3a3f 6aa9 32bf
000000d0: 9338 493e 4761 62be a519 2b3f 8c45 3ebf
000000e0: a961 753e a6e9 903e b36b d53d 516a 193f
000000f0: 4583 ccbe 5ee5 a03e cd8c 1c3f 95a6 5dbe
1.1812401 0.9612647 -0.5964208 -0.057238445 -1.0381379 -0.84639525 0.36377817 0.8157273
-0.06254771 -0.55500996 -0.34788468 -0.16081935 0.26976514 0.8077269 -0.27071667 -0.92404795
0.28523833 0.6624783 0.40756744 -0.7949652 -0.8101971 0.5905582 0.51727486 0.54708844
-0.35742614 -0.97765416 -0.51317364 1.0215061 0.3507024 0.89630014 -0.23166071 0.6924672
0.30189437 -0.541985 0.57010156 0.5920367 -0.00945738 0.60298735 0.11231374 0.012398832
-0.29947478 -0.44914988 -0.36642703 1.0897999 0.29874915 -0.21405596 0.1332819 -0.8972601
-0.011465859 -0.9788447 0.730088 -0.69789755 0.19650488 -0.22107421 0.66836005 -0.7432487
0.23963036 0.2830326 0.104209326 0.5992785 -0.399439 0.31424993 0.61152345 -0.21645577

fc2.weight f4 [64, 64]
00000000: d402 f5be 9e5c ba3e ab6b 27be 3298 17be
00000010: e57b 42be e603 22be 4dc1 f53e 648d 913e
00000020: 08c3 323c 5500 363d ea0a 8abe 7a34 57bc
00000030: 04fe 89bd fcc1 073f b729 1c3f 671c 5dbc
00000040: 959d fa3d 7d04 303d 4d7e 493e e27c a2be
00000050: d758 44be 029d 193e f947 3ebe 6102 da3e
00000060: 8879 0aba 301b eebd ed67 71bd dbed da3e
00000070: f856 8c3e fc4a 8b3e abd5 93be 746b 503e
00000080: 94d1 eb3e b764 893e 35dd 1e3e 8628 1e3e
00000090: bfd9 773e 917d 5c3e 566b 463e 034c 9e3e
000000a0: c25c 3c3e fd63 0a3e a885 f03d a900 6b3e
000000b0: 50fc 5ebd 4639 71bc 92db ffbe 4b73 84be
000000c0: 70c5 f53d e683 5bbd c4c8 923e fd16 e1bd
000000d0: 5ea2 b73e 9786 d4bd 7f4f 0c3e d1c0 bb3e
000000e0: b7b9 8d3e a034 663e 660a 943e 0684 fb3e
000000f0: 2f4a 8a3d 717e fb3e 255e d73e 37b9 b7be
00000100: 34b2 5a3f 8aa2 4cbd e557 743e 3646 153f
00000110: 2415 0c3f fbec 103f a0bd 58bf e5ee 21bf
00000120: c897 d83e 47e1 573e acb7 573e 456c 473e
00000130: 189d de3d 5bb7 27bf 320b a2bf fcc1 e23e
00000140: 93d6 e4bc 58da 133e eb7c 4ebe ccad ec3e
00000150: a79a d13e e00e d2bc 3ce6 573f 76db 06bf
00000160: 770a 163e 10f6 be3e 6dda 783e 8dba 7dbf
00000170: b879 173e f28f 82bd 02a3 623f f180 10bf
00000180: f503 453e 930c e5be 318e 7c3e 93be 853d
00000190: 9230 c4be 3b7d 31be df9a 423f b200 43bf
000001a0: c175 e43e 4fee 373e 31b8 dc3e ad17 01bd
000001b0: ce9a d33c c2c3 4a3e 166a 8a3f cdc8 d43e
000001c0: 5fa5 fd3d 018b e13e 3ef1 25be 8e10 8d3e
000001d0: 2e0d ebbe 2a6a 8f3e ffad 99be 4c3a eb3d
000001e0: 11b1 5bbf 15e2 8cbf 9cda bb3d 7f02 32bf
000001f0: 4def 26be 2183 ffbd 7d68 14bf d41b f13e
00000200: 7bd2 acbe 99b9 cb3e ecfe 56bc 134b 6cbe
00000210: a5ab 9dbe 2c2f 17be 3879 e03e 1457 5d3e
00000220: f9ff a8bd 0d82 86bd 4e6b 69be 0986 bc3d
00000230: 7c8b a23c 3f85 ec3e 0a8a 223f fc08 09be
00000240: 6502 dd3d 4f33 043e 07ee 623e a67d d0bd
00000250: dd9c b5bc 2f38 813e 6d76 92bd 9041 ef3e
00000260: e13e 1dbe 2112 62be d6fd 85bd 2c1a fb3e
00000270: fded 5e3e 2dfa c73e 2373 e0be f625 1f3e
00000280: a7a3 063f b919 cf3e 1c62 1d3e 5af6 453e
00000290: a95b 873e 979c 563e 193d 143d 0e8e b53e
000002a0: 459b 013e 703b 1a3d e273 613e 5e15 af3d
000002b0: 3b07 00bd f2b2 8e3d 194c 1cbf 93b9 75be
000002c0: 613d e5bb 25de a63c c828 7c3e 0fd9 013b
000002d0: 7195 d73e 3a34 cfbd 87d8 853e ef58 023f
000002e0: 5693 713e 6e44 b13e adb9 143e 501e aa3e
000002f0: 4072 193d 2906 d13e 1123 bb3e b620 87be
00000300: 336c 103f 0c65 b8be c24c dc3e d3da 9d3e
00000310: 9a37 d43e 0a21 1e3f 1df6 9dbe a5f8 0dbe
00000320: 0cc1 d13e 0008 883e 0b05 913e 5547 953e
00000330: c9ab a93e ad01 80be 4ef2 e9be 3622 cf3e
00000340: 9957 b63d 4301 093e 1a46 23be 3527 ce3e
00000350: b4cc 033f 7990 23bc 6892 843e 7341 193e
00000360: 4f4c 963e 1fdf cd3e 2c1e a23e 67df 42be
00000370: 5e95 b83e b4d4 2bbe 6612 d63e e64d 973c
00000380: 1cb2 b2be c5a5 f4be 449c b93e dc54 81bd
00000390: a7c3 7f3c 425f f13d ceb5 23be 36ee 16be
000003a0: 6b1a 5abe d189 883e 6904 7dbe dbad 333e
000003b0: 1e9b 323e 26a9 9d3e 5249 233f 39f2 003f
000003c0: 13a8 8f3e c7d6 7e3e f8f9 a2bd cfe2 003f
000003d0: 86aa 693d f681 753e 3260 6ebd 289a 51be
000003e0: 8641 17be a916 b0be cdf4 0a3e 2680 50be
000003f0: 2c05 123d 3506 53be 6c06 c9bd e49a 083f
-0.4785372 0.36398786 -0.16349666 -0.14804152 -0.18992575 -0.158218 0.4799904 0.28428185
0.010910757 0.04443391 -0.26961452 -0.01313507 -0.06737903 0.5303037 0.6100115 -0.013495541
0.12237088 0.04297303 0.19677086 -0.31735903 -0.19174515 0.150013 -0.18582143 0.4257994
-0.0005282392 -0.11626279 -0.058937002 0.42759594 0.27410102 0.27205646 -0.28873953 0.2035349
0.46058333 0.26834652 0.15514071 0.15445146 0.24204157 0.21532275 0.19376883 0.30917367
0.1839476 0.13514705 0.11744243 0.2294947 -0.054439843 -0.014723128 -0.49972206 -0.25869212
0.12000549 -0.053592585 0.28668797 -0.10990713 0.35866064 -0.103772335 0.137022 0.36670545
0.27680752 0.22481012 0.28914183 0.49124163 0.06752431 0.49119905 0.42064014 -0.35883495
0.85428166 -0.049959697 0.23861654 0.5831026 0.5471976 0.56611603 -0.84664345 -0.6325515
0.423033 0.2108203 0.21066159 0.19474895 0.10869807 -0.65514153 -1.2659667 0.44288623
-0.027934348 0.1443876 -0.2016484 0.46226346 0.40938303 -0.025641859 0.84335685 -0.5267862
0.1465243 0.37297106 0.24302073 -0.9911278 0.14792526 -0.06375112 0.8852998 -0.5644675
0.1923979 -0.44736156 0.24663617 0.0653049 -0.38318306 -0.17332928 0.76017565 -0.76172936
0.4462109 0.17962001 0.43109277 -0.03151672 0.025830653 0.19801238 1.0813625 0.4155945
0.12385058 0.44051364 -0.16205308 0.27551693 -0.45908493 0.28010684 -0.3001556 0.114857286
-0.85817057 -1.1006495 0.09172556 -0.6953506 -0.16302224 -0.12476183 -0.57971936 0.47091544
-0.33754334 0.39790037 -0.013122302 -0.23075514 -0.30795017 -0.14764088 0.43842483 0.21615249
-0.08251948 -0.06567774 -0.2279484 0.09205253 0.019841902 0.4619541 0.6349188 -0.13382334
0.10791472 0.12910198 0.22161113 -0.101802155 -0.022169525 0.25238177 -0.07151494 0.46729708
-0.15356018 -0.22077228 -0.06542556 0.49043405 0.21770473 0.39058056 -0.43837842 0.15541825
0.52593464 0.40449312 0.15369457 0.19332257 0.2643712 0.20958172 0.03619108 0.35459942
0.12656887 0.03765434 0.22016862 0.08548997 -0.031256896 0.06967725 -0.61053616 -0.23996572
-0.0069958423 0.020369599 0.24624932 0.0019813215 0.42106202 -0.10117383 0.2614176 0.5091695
0.2359136 0.3462252 0.14523955 0.33226252 0.037462473 0.40825012 0.3655019 -0.26392144
0.564151 -0.36014593 0.43027312 0.30831012 0.4144867 0.61769164 -0.30851832 -0.13864382
0.40967596 0.26568604 0.2832416 0.29155985 0.33138874 -0.2500128 -0.45692676 0.40455788
0.08903427 0.13379388 -0.1594471 0.40264288 0.5148423 -0.009983175 0.2589295 0.14966373
0.29355094 0.4020929 0.31663644 -0.19030534 0.36051458 -0.16780359 0.41810912 0.018469762
-0.34901512 -0.47782722 0.36252034 -0.06315014 0.015610612 0.11785747 -0.15987322 -0.14739308
-0.2129914 0.26667646 -0.24708714 0.1754679 0.17441985 0.30793113 0.6378375 0.503696
0.28057918 0.24886619 -0.07957834 0.5034608 0.05704739 0.23975357 -0.058197208 -0.20468962
-0.14771089 -0.34392288 0.13569947 -0.20361385 0.035649464 -0.20607837 -0.09815678 0.53361344

fc2.bias f4 [64]
00000000: 2e31 bd3e d313 e7bd 5068 b73e ec15 9e3d
00000010: 40d3 c93e 2438 f43e 1163 fd3e 5577 fd3e
00000020: 64a4 3c3f 2e07 cd3e c758 653d dd9d 3b3d
00000030: 8d9b e93e eb7c 8f3e c971 e1bd 8373 983e
00000040: 7008 e83e 2ac2 ee3e 6504 e53c 4434 f73e
00000050: d847 c43e 2306 a83d 823d a7be b735 693f
00000060: 7bd5 9e3e 454f 633d a0b8 1a3e b5be b43e
00000070: e114 0dbe e991 e13b eb6a 89bd 9896 eebe
00000080: 23af d3be c2c7 d63e 1a8a cabe 0f34 e8bd
00000090: d5c5 db3e b2fa a33e 69de c03e 38ce 8c3e
000000a0: a7db d23e 23d3 e93d 888b 833e cbc7 8ebe
000000b0: ff90 6d3f 0cfe 503f 6695 1a3e 2983 843e
000000c0: 9f0b c43e ce5f c43e 529d a13e 3748 a93e
000000d0: 2152 c03e 360e e93e b93d be3e 30eb cb3e
000000e0: fdba 6f3e 7283 1f3e 171c a23d cb7c ec3e
000000f0: 1d87 ccbb 0745 d33e 2a8f 743b 0250 af3e
0.36951584 -0.11283078 0.35821772 0.07719025 0.39418983 0.47699082 0.49489644 0.49505106
0.7368834 0.4004454 0.055992868 0.045804847 0.45626488 0.28024992 -0.11008031 0.29775628
0.45318937 0.4663251 0.027956197 0.48282063 0.38336062 0.082042955 -0.32664114 0.9109759
0.31022248 0.05549552 0.15109491 0.35301748 -0.13777496 0.006883849 -0.06709846 -0.4659927
-0.41344556 0.41949278 -0.39558488 -0.113380544 0.4292437 0.32027203 0.37669685 0.27501082
0.41183206 0.11417224 0.2569239 -0.27886805 0.9279937 0.81637645 0.15096053 0.25881317
0.38290116 0.38354343 0.31565338 0.33062908 0.3756266 0.45518655 0.37156466 0.3982787
0.23411174 0.15577486 0.07915514 0.4618896 -0.0062416927 0.412636 0.0037316778 0.3424073

fc3.weight f4 [1, 64]
00000000: 9c9e 0dbf f65e 273f 4e09 10bf 0d9b fc3e
00000010: 540e 0cbf 8c5e 03bf 0a56 f5be d60e eebe
00000020: 6c74 a13f 6e86 02bf 8d9b 053f 46d2 153f
00000030: 8c72 f5be d6a9 16bf 7994 0c3f 5527 15bf
00000040: 5bc7 02bf fd04 05bf 940c 063f e011 09bf
00000050: 81e3 03bf 72f2 0a3f 2b88 473f 28a6 d73f
00000060: 9cb2 02bf eaca f63e 789b e43e 83c4 06bf
00000070: 7ebe 123c 88a3 033f e045 103f c8fc 353f
00000080: fa52 363f ee5c febe 29dc 853f 08f0 013f
00000090: a458 05bf 59e0 f0be bae0 1abf 8cb5 13bf
000000a0: 88b8 c03f 7a85 f43e aa53 edbe 33fc 133f
000000b0: d9fd fa3f 76db f03f 5e25 ee3e c1cf 12bf
000000c0: 234e eebe c9c3 f7be daa3 0dbf bdc3 10bf
000000d0: 51b5 fdbe 688f 03bf 6415 15bf 467b 08bf
000000e0: b1e2 0fbf b711 063f 4f4a d83e a4e6 f7be
000000f0: 7d2b e73e 32e7 ffbe 3385 f53e 44d2 f1be
-0.55320144 0.65379274 -0.562642 0.49337044 -0.54709363 -0.5131614 -0.47917205 -0.46495694
1.2613654 -0.50986373 0.52190477 0.58523977 -0.47938955 -0.588529 0.5491405 -0.5826314
-0.5108544 -0.51960737 0.5236294 -0.535429 -0.5151902 0.5427619 0.7794215 1.6847582
-0.51053786 0.48201686 0.44649863 -0.52643603 0.00895655 0.51421404 0.5635662 0.7108884
0.7122036 -0.49680275 1.0457813 0.50756884 -0.5208838 -0.47046164 -0.60499156 -0.57698894
1.5056314 0.47758085 -0.46352893 0.578067 1.9608718 1.8816974 0.46512884 -0.5734826
-0.4654399 -0.4839156 -0.5532814 -0.5654867 -0.49552396 -0.51390696 -0.58235765 -0.533131
-0.5620528 0.5237078 0.42244193 -0.48418152 0.45150366 -0.49981076 0.47953185 -0.47230732
